src/weights/mlp_model.pth (torch, 447768 bytes, 8 tensors)

fc1.weight f4 [128, 784]
0.011240763 0.03870855 0.033987805 0.040971063 0.00887676 0.055072147 0.019223597 -0.002639684
0.06116407 0.04717574 0.0007052738 0.020943357 0.042559527 0.048304208 0.05890716 -0.002242618
0.019822467 0.032222968 0.03560667 0.052385 0.013507156 -0.0013985847 -0.0019559131 0.020947931
0.0017750592 0.009444111 0.0022073484 0.020402297 0.045848295 0.00020905041 0.026215982 -0.00533799
0.028222742 0.023344837 0.03801819 -0.0022910456 0.056919634 0.0006323604 0.05154395 0.04316312
0.045128267 -0.0035786724 0.041450676 0.023863332 -0.004223729 0.012596019 0.030000918 0.049014255
0.060793113 -0.0010970893 -0.0037433396 0.009636522 0.0320785 -0.006554155 0.013310997 0.008994992
0.03134472 0.01849533 0.045966655 -0.0059247375 0.0091189975 0.062428407 0.024423003 0.0260761
0.0345319 0.00474827 -0.010001584 -0.0151815545 0.030204078 0.01074139 -0.014703238 -0.0031372244
-0.00945227 -0.028064255 0.00044168826 -0.01637695 0.007001756 -0.0062837023 0.030650357 0.047625303
0.003455841 0.04204268 -0.0070814095 0.030353082 0.013491435 0.053706877 0.06602303 0.053906403
-0.003301721 -0.008112241 -0.026576543 -0.010782334 0.01569728 0.085387565 0.020518078 -0.0060504572
0.010662985 -0.0831748 -0.0810882 7.0794056e-05 0.052018527 0.07778616 0.01900846 -0.018436477
0.077951044 0.038817603 0.015243625 -0.016148323 -0.0023591844 0.0311551 0.044137657 -0.0054717977
-0.004952538 0.0349657 0.06715181 0.058075804 -0.0035954448 -0.04432384 -0.043931633 -0.0063085067
0.013595421 -0.078441024 0.022826 -0.029729418 0.10993318 0.117918186 0.048177972 0.080455005
-0.051262148 0.028586831 -0.023420624 -0.07539369 0.020088917 0.0755708 0.022668751 0.011834083
0.01935829 0.012481248 0.020507444 0.061684582 -0.0041953255 0.0307472 0.02276397 0.02684603
0.014250147 0.047402795 0.06348517 0.11981536 0.07705495 0.008771792 -0.111860916 0.02843211
0.12677725 0.20094088 0.12205729 0.0027858457 -0.0212364 0.07219761 0.09024622 0.020719988
-0.05456332 -0.021346692 0.0012243119 -0.061093997 0.0043729376 0.04563956 -0.0069843717 0.043266427
0.033960868 0.024667997 0.009975496 0.004263831 0.043968134 0.09831936 0.1707158 0.12510218
0.109480955 0.083710946 0.012521536 0.08056968 0.096503735 0.18517828 0.042108182 -0.044778943
0.122542515 0.17559835 0.15926738 0.05967471 0.039342664 0.11567522 -0.012498743 -0.06498662
-0.08049397 -0.022797259 -0.007636519 0.04632607 0.016710049 0.05048859 0.034681555 0.06749539
0.0056922846 0.016433632 0.1877868 0.112214245 -0.020279197 0.06796125 0.092247054 0.04124511
0.042202566 -0.030403817 -0.033807144 -0.0053503835 0.041549027 0.10447214 0.11191209 0.132386
0.107712716 0.06640547 -0.10841867 -0.1139333 -0.072215095 -0.0075718947 0.03917195 -0.0051502227
0.017347196 0.0043131206 0.02433392 0.08384685 -0.0094094 0.0033854241 0.17133126 0.121695355
0.14285915 0.06441794 0.07468428 0.08401364 -0.064362936 -0.16228683 -0.06538102 0.08855775
0.056672703 0.06066229 0.13984331 0.03590331 0.15956861 0.11251702 0.015184078 -0.08339983
-0.06180174 0.0125395125 0.031009635 0.05101708 0.012810541 0.057468694 0.035574 0.083880894
00000000: 2d2b 383c db8c 1e3d cc36 0b3d 46d1 273d
00000010: d46f 113c 5593 613d ce7a 9d3c 8cfe 2cbb
00000020: 2d87 7a3d 593b 413d 20e2 383a 6791 ab3c
00000030: e652 2e3d a2da 453d a248 713d e3f8 12bb
00000040: ba62 a23c 3bfc 033d 4dd8 113d a791 563d
00000050: 1e4d 5d3c b750 b7ba c72e 00bb ff9a ab3c
00000060: 1aa9 e83a 79bb 1a3c 29a9 103b b822 a73c
00000070: 6ccb 3b3d 8b34 5b39 e6c2 d63c 4eea aebb
00000080: 6133 e73c ac3d bf3c f6b8 1b3d 5e25 16bb
00000090: 9024 693d fdc4 253a c01f 533d d0cb 303d
000000a0: 6bd8 383d 2988 6abb 2fc8 293d 097d c33c
000000b0: 3567 8abb 885f 4e3c 7cc4 f53c 2cc3 483d
000000c0: 3302 793d 35cc 8fba d152 75bb 81e2 1d3c
000000d0: bf64 033d 3dc4 d6bb 5e16 5a3c bb5f 133c
000000e0: 5263 003d 8583 973c 8847 3c3d 4d24 c2bb
000000f0: d967 153c eeb4 7f3d c012 c83c 8c9d d53c
00000100: 5271 0d3d 6097 9b3b afdd 23bc 0ebc 78bc
00000110: 8b6e f73c a8fc 2f3c dae5 70bc e499 4dbb
00000120: b2dd 1abc 02e7 e5bc 6592 e739 f428 86bc
00000130: fd6e e53b 84e7 cdbb 7516 fb3c c012 433d
00000140: 647b 623b f234 2c3d 2b0b e8bb 07a7 f83c
00000150: 2e0b 5d3c befb 5b3d 1537 873d f6cc 5c3d
00000160: b061 58bb 34e9 04bc 0db7 d9bc 63a8 30bc
00000170: 9597 803c addf ae3d 8715 a83c ea42 c6bb
00000180: cdb3 2e3c 8d57 aabd 9211 a6bd 4577 9438
00000190: 6111 553d 5a4e 9f3d a1b7 9b3c 1808 97bc
000001a0: cca4 9f3d 35ff 1e3d 66c0 793c 7d49 84bc
000001b0: 8c9c 1abb fb38 ff3c b0c9 343d c44c b3bb
000001c0: e648 a2bb 3238 0f3d e386 893d e5e0 6d3d
000001d0: 8ea1 6bbb ea8c 35bd a8f1 33bd 97b7 cebb
000001e0: 54bf 5e3c b0a5 a0bd 97fd ba3c 1c8b f3bc
000001f0: a624 e13d 177f f13d 4456 453d 98c5 a43d
00000200: 42f8 51bd ee2e ea3c 9cdc bfbc 0268 9abd
00000210: 8391 a43c ddc4 9a3d d1b3 b93c bee3 413c
00000220: 4795 9e3c 267e 4c3c 3aff a73c f9a8 7c3d
00000230: f178 89bb 8de1 fb3c 817b ba3c 35ec db3c
00000240: 7379 693c 6f29 423d 8304 823d c161 f53d
00000250: fcce 9d3d 90b7 0f3c 5617 e5bd 75ea e83c
00000260: e5d1 013e 72c3 4d3e 2cf9 f93d bc92 363b
00000270: f5f7 adbc 57dc 933d 03d3 b83d f7bc a93c
00000280: ca7d 5fbd 42df aebc 1779 a03a b33d 7abd
00000290: dc4a 8f3b 8cf0 3a3d 28dd e4bb 2338 313d
000002a0: 8d1a 0b3d 8a14 ca3c 4370 233c 9bb7 8b3b
000002b0: ee17 343d a95b c93d 1fd0 2e3e c91a 003e
000002c0: 8d37 e03d a570 ab3d 2127 4d3c b701 a53d
000002d0: c0a3 c53d 609f 3d3e a179 2c3d 206a 37bd
000002e0: 92f7 fa3d 0ed0 333e fd16 233e 786d 743d
000002f0: c625 213d 21e7 ec3d 87c7 4cbc b417 85bd
00000300: 06da a4bd 51c1 babc c43b fabb 68c0 3d3d
00000310: 83e3 883c 20cd 4e3d 3f0e 0e3d 063b 8a3d
00000320: 5886 ba3b d39f 863c 2f4b 403e 95d0 e53d
00000330: 8f20 a6bc 452f 8b3d 06ec bc3d a2f0 283d
00000340: 99dc 2c3d 6d11 f9bc 5c79 0abd 4552 afbb
00000350: 502f 2a3d 7df5 d53d 2a32 e53d 3290 073e
00000360: 7c98 dc3d 97ff 873d 9c0a debd dd55 e9bd
00000370: 82e5 93bd a81d f8bb c472 203d 33c3 a8bb
00000380: b51b 8e3c 1455 8d3b ee57 c73c e6b7 ab3d
00000390: e229 1abc fedd 5d3b 7671 2f3e 6a3b f93d
000003a0: ab49 123e 8eed 833d 12f4 983d 580f ac3d
000003b0: b7d0 83bd 852e 26be 7ce6 85bd c45d b53d
000003c0: a321 683d 0579 783d 1633 0f3e 590f 133d
000003d0: f465 233e 536f e63d a4c6 783c 88cd aabd
000003e0: d223 7dbd 8772 4d3c eb07 fe3c 49f7 503d
000003f0: 4ee3 513c 4b64 6b3d 0bb6 113d bfc9 ab3d

fc1.bias f4 [128]
-0.05987411 -0.03132985 -0.046875358 -0.006399942 0.016577875 -0.077669725 -0.030341819 0.004338611
-0.024381744 -0.033744596 -0.0038355745 -0.003973158 -0.021684892 0.007265229 -0.0047673183 -0.037007254
-0.0051420922 0.012184485 -0.03599271 -0.037495404 0.032738235 -0.035312843 -0.040675614 0.023623316
-0.004851606 -0.012998526 -0.04644907 -0.013060941 0.036674 -0.041938383 -0.0052749678 0.0033689695
-0.016333384 -0.019565191 -0.036837555 0.038429633 -0.018501883 -0.0074524703 0.019223358 -0.05630756
-0.0256031 0.010516772 -0.0077643828 0.037003115 -0.007978418 -0.0033590808 0.009026068 0.018392375
0.0017382758 -0.017111149 -0.006260968 -0.007029522 0.028339645 -0.0086626075 0.0027172803 0.033907652
0.022083353 -0.02347048 0.03868362 -0.009257514 -0.020627571 0.010158274 0.026396507 -0.011420015
-0.0016977013 0.008209752 0.011152739 0.007057256 0.015488389 -0.026164271 -0.0039259256 -0.038363446
0.0025378778 -0.0138718095 -0.0073892265 -0.038818568 -0.0023367293 0.008340009 -0.02494117 0.023807818
-0.026742551 0.002344748 -0.039911866 0.04350353 -0.040719304 -0.01685535 -0.004945357 0.0126643805
-0.015481488 -0.06384492 -0.012131245 -0.042696405 0.033548355 0.012816367 -0.001014917 -0.038960174
-0.09679961 -0.018190995 0.014266407 -0.0068735355 -0.008334929 -0.04050005 -0.043841384 -0.0011588248
-0.003249611 0.023291621 -0.014505137 0.0049367337 -0.035090704 0.009618029 -0.0220442 -0.082423575
0.014685007 -0.03997497 0.03922577 -0.005260039 -0.05131858 0.005735471 -0.009922659 -0.022369448
0.030552818 -0.04457231 -0.08017126 -0.03671377 -0.007999793 -0.01086855 0.034518413 -0.012690259
00000000: 8e3e 75bd bb53 00bd 6000 40bd 9bb6 d1bb
00000010: 53ce 873c 4e11 9fbd 688f f8bc e82a 8e3b
00000020: 39bc c7bc c637 0abd 435e 7bbb 4431 82bb
00000030: 84a4 b1bc 2811 ee3b 2a37 9cbb eb94 17bd
00000040: ff7e a8bb 6fa1 473c 186d 13bd c894 19bd
00000050: 8718 063d 33a4 10bd 799b 26bd af85 c13c
00000060: 39fa 9ebb c5f7 54bc 6141 3ebd 8ffd 55bc
00000070: 7a37 163d 95c7 2bbd a3d9 acbb eec9 5c3b
00000080: 97cd 85bc 2e47 a0bc fae2 16bd 6468 1d3d
00000090: 4391 97bc da33 f4bb 4e7a 9d3c c2a2 66bd
000000a0: 98bd d1bc 8a4e 2c3c 5d6c febb 9490 173d
000000b0: e9b7 02bc 0624 5cbb 13e2 133c 9bab 963c
000000c0: dbd6 e33a ae2c 8cbc ce28 cdbb e857 e6bb
000000d0: 8b28 e83c 9ced 0dbc 6614 323b c0e2 0a3d
000000e0: 26e8 b43c 2a45 c0bc b772 1e3d d4ac 17bc
000000f0: 27fb a8bc e46e 263c 7d3d d83c 041b 3bbc
00000100: 6785 deba 3282 063c fab9 363c 8e40 e73b
00000110: 03c3 7d3c 7456 d6bc 0da5 80bb fd22 1dbd
00000120: 8652 263b 9646 63bc 5321 f2bb 3800 1fbd
00000130: d023 19bb 88a4 083c 6d51 ccbc 9d08 c33c
00000140: 3213 dbbc 58aa 193b a07a 23bd c230 323d
00000150: 49c9 26bd 3b14 8abc a90c a2bb 437e 4f3c
00000160: 11a6 7dbc 20c1 82bd 21c2 46bc 6de2 2ebd
00000170: 006a 093d bdfb 513c f706 85ba b494 1fbd
00000180: e03e c6bd 4805 95bc a6bd 693c 653b e1bb
00000190: 3a8f 08bc 61e3 25bd 0693 33bd b5e3 97ba
000001a0: 6df7 54bb 12ce be3c f4a6 6dbc 53c4 a13b
000001b0: 45bb 0fbd f094 1d3c 0a96 b4bc b1cd a8bd
000001c0: 6299 703c cbbc 23bd 33ab 203d 685c acbb
000001d0: 6e33 52bd 9ef0 bb3b a692 22bc 2240 b7bc
000001e0: e749 fa3c 7491 36bd d430 a4bd 2e61 16bd
000001f0: 9011 03bc 0112 32bc 2e63 0d3d ceea 4fbc

fc2.weight f4 [64, 128]
0.00482134 -0.12788948 -0.15157762 -0.17601682 -0.03134309 -0.0920225 -0.0041816225 -0.0143509945
-0.13176674 -0.048431333 0.0018602767 -0.06719236 -0.07407304 0.0040221857 0.08124087 0.07972735
-0.016320916 -0.02480416 -0.05337254 0.03158551 -0.04133677 -0.039842907 -0.12679382 -0.13568792
-0.09489484 0.110459514 -0.0010202592 -0.015176926 -0.09254554 0.053624377 -0.07111861 0.026177503
-0.00016560283 -0.14681923 -0.057849716 -0.14064862 -0.13386814 0.034734108 0.09195394 -0.02985898
-0.072161555 -0.007857748 -0.08528395 -0.07113072 0.018930424 -0.14967488 -0.030189795 0.010971254
-0.1208484 0.049076285 0.04175844 -0.058538936 -0.14951837 0.055864234 -0.007456346 -0.01017837
-0.08655437 -0.09400112 -0.13127385 -0.01360345 -0.020567607 -0.1684119 -0.08500151 -0.057247046
-0.056213707 0.025848003 -0.016788783 -0.14302707 -0.10449038 0.046507947 0.061911065 -0.124230474
0.03167408 -0.0862446 -0.0039495975 -0.0055893883 0.0022826614 -0.05133577 -0.011505922 -0.02931876
0.04822321 -0.09099968 -0.04605792 -0.15790659 0.061094638 -0.10595713 -0.05115328 0.011689314
0.011620708 -0.008833367 -0.040096853 0.068492375 -0.05222827 0.033429794 -0.06339029 -0.0870989
0.009086774 0.008224936 -0.043165956 -0.00923828 -0.021101011 -0.058340758 0.03788069 -0.03815998
-0.11608021 -0.08854523 -0.18349096 -0.030653594 0.06704834 -0.10373087 -0.06874925 -0.021878041
-0.045823533 0.0005764852 0.08373261 -0.048844643 -0.079178825 -0.02693214 -0.007787174 -0.014639177
0.022205805 0.035452537 0.003478347 0.059654742 -0.09679353 0.028212093 -0.15858167 -0.02426413
0.02784809 -0.016125323 -0.02311382 0.11768315 -0.053067803 0.10923739 -0.09854375 -0.044482585
-0.20327613 0.06902958 -0.13328652 -0.14264922 0.13827848 0.097320415 0.14367235 -0.27737877
0.06547938 0.0036316533 0.11561381 0.08917174 -0.09334307 0.05342942 -0.051093105 -0.12437618
-0.10898839 -0.021551954 0.08603999 0.008068874 -0.103214905 0.023145495 0.060549665 0.14740641
0.12278122 -0.070751995 0.019293932 -0.3438399 -0.23835932 -0.088567495 0.11555225 0.19816941
-0.0075185397 -0.30381608 0.020509133 0.096815296 0.10191231 -0.16755016 0.03210525 -0.30701697
0.2239104 0.047968067 0.030125521 0.03020962 0.021083288 0.0432445 0.032978654 -0.011641222
0.0048683262 0.2221321 0.046545744 -0.02602394 0.0024493167 -0.23605914 -0.09026659 -0.011538167
0.084992826 0.025791219 -0.0070736366 0.016913138 0.129372 0.062444948 -0.05863921 0.087443754
-0.16977519 0.07710189 0.043382283 -0.12594531 -0.17012653 0.0021637385 0.20290412 0.110013224
-0.02638285 0.044254426 0.056498155 -0.3843646 -0.05108057 -0.42149115 0.05895784 0.09023426
0.019012941 -0.13426441 0.164583 -0.034680754 -0.000582476 -0.03570034 0.14241853 0.02794978
-0.0023515492 -0.015079172 0.07682345 0.11515288 -0.049618155 -0.1332808 0.11697256 0.029243045
-0.022447782 0.17610444 0.018546715 0.013043468 -0.076024815 0.019588841 -0.15197586 0.21124536
0.08496839 -0.032408595 -0.055119388 0.14543423 -0.21654487 -0.06755911 0.11403827 0.041212417
0.04478735 -0.048632797 0.16713548 0.018282097 0.011397112 -0.21006584 -0.21634859 -0.15578155
00000000: 55fc 9d3b 76f5 02be 2a37 1bbe c13d 34be
00000010: 9d61 00bd 4b76 bcbd fe05 89bb 6f20 6bbc
00000020: dced 06be ef5f 46bd 87d4 f33a 269c 89bd
00000030: 9bb3 97bd 8acc 833b 9d61 a63d 1848 a33d
00000040: 71b3 85bc 1832 cbbc 2a9d 5abd cf5f 013d
00000050: bf50 29bd 5132 23bd 3dd6 01be c6f1 0abe
00000060: 3a58 c2bd 9938 e23d 38ba 85ba a4a8 78bc
00000070: 8488 bdbd 3ca5 5b3d a2a6 91bd 3472 d63c
00000080: aca5 2db9 c857 16be d3f3 6cbd 3106 10be
00000090: bb14 09be 5a45 0e3d 5952 bc3d d29a f4bc
000000a0: 70c9 93bd c9bd 00bc 5aa9 aebd fcac 91bd
000000b0: fa13 9b3c 5f44 19be 9750 f7bc c6c0 333c
000000c0: 5e7f f7bd 3704 493d e60a 2b3d 86c6 6fbd
000000d0: 581b 19be e5d1 643d 5d54 f4bb 2ec3 26bc
000000e0: 6b43 b1bd a983 c0bd a76c 06be 01e1 5ebc
000000f0: 667d a8bc 2b74 2cbe 4615 aebd e17b 6abd
00000100: 5840 66bd 31bf d33c a188 89bc b075 12be
00000110: 0dff d5bd 1e7f 3e3d 7596 7d3d 8c6c febd
00000120: aebc 013d 02a1 b0bd a06b 81bb 3027 b7bb
00000130: b498 153b 7545 52bd 5683 3cbc e52d f0bc
00000140: b385 453d 0a5e babd 3ba7 3cbd 44b2 21be
00000150: 5f3e 7a3d 0d00 d9bd 1a86 51bd 8984 3f3c
00000160: c864 3e3c d4b9 10bc 993c 24bd bb45 8c3d
00000170: 4fed 55bd aeed 083d c5d2 81bd e860 b2bd
00000180: b1e0 143c e2c1 063c c9ce 30bd 285c 17bc
00000190: 07dc acbc b8f6 6ebd c828 1b3d a44d 1cbd
000001a0: 76bb edbd 3457 b5bd 0ee5 3bbe 3f1d fbbc
000001b0: a450 893d da70 d4bd 68cc 8cbd 9439 b3bc
000001c0: 75b1 3bbd 441f 173a 017c ab3d 5211 48bd
000001d0: 8228 a2bd cba0 dcbc 8d2b ffbb 29d9 6fbc
000001e0: f3e8 b53c ae36 113d fbf4 633b 8858 743d
000001f0: b03b c6bd 0c1d e73c 3c63 22be 92c5 c6bc
00000200: ad21 e43c 4119 84bc 3259 bdbc dd03 f13d
00000210: a05d 59bd dab7 df3d 4ed1 c9bd 5f33 36bd
00000220: 9e27 50be 615f 8d3d 437c 08be a312 12be
00000230: e098 0d3e ed4f c73d d81e 133e 9704 8ebe
00000240: 0e1a 863d 0801 6e3b efc6 ec3d ac9f b63d
00000250: a72a bfbd cfd8 5a3d 0147 51bd f0b8 febd
00000260: 4e35 dfbd b98d b0bc bc35 b03d 4f33 043c
00000270: 5662 d3bd 9f9b bd3c ed02 783d b5f1 163e
00000280: b874 fb3d 6ce6 90bd 4f0e 9e3c c90b b0be
00000290: 7714 74be e062 b5bd a8a6 ec3d ecec 4a3e
000002a0: 155e f6bb c88d 9bbe c502 a83c 1947 c63d
000002b0: 67b7 d03d 4592 2bbe cb80 033d 5431 9dbe
000002c0: c548 653e 2a7a 443d ccc9 f63c 2a7a f73c
000002d0: dcb6 ac3c 2521 313d a014 073d d3ba 3ebc
000002e0: 7b86 9f3b 9976 633e c0a6 3e3d 2830 d5bc
000002f0: b784 203b 7db9 71be b1dd b8bd 940a 3dbc
00000300: b810 ae3d 1b48 d33c f7c9 e7bb 6c8d 8a3c
00000310: 187a 043e 46c6 7f3d ab2f 70bd b615 b33d
00000320: 8cd9 2dbe 99e7 9d3d 9fb1 313d cff7 00be
00000330: a635 2ebe 82cd 0d3b 19c6 4f3e 9d4e e13d
00000340: d920 d8bc 2144 353d 9c6a 673d 70cb c4be
00000350: dc39 51bd b0cd d7be c77d 713d bdcc b83d
00000360: 07c1 9b3c 9c7c 09be 7288 283e 680d 0ebd
00000370: 4db1 18ba 853a 12bd 2ad6 113e f0f6 e43c
00000380: 731c 1abb a20e 77bc 9d55 9d3d 46d5 eb3d
00000390: 683c 4bbd c37a 08be 4f8f ef3d 1c8f ef3c
000003a0: 69e4 b7bc b954 343e 48ef 973c 45b4 553c
000003b0: e6b2 9bbd c778 a03c 8f9f 1bbe b450 583e
000003c0: e803 ae3d e0be 04bd dec4 61bd b6ec 143e
000003d0: f0bd 5dbe 6e5c 8abd e68c e93d 5ace 283d
000003e0: f172 373d 2f33 47bd 9025 2b3e 56c4 953c
000003f0: f4ba 3a3c 801b 57be 7c8a 5dbe 3385 1fbe

fc2.bias f4 [64]
-0.15204927 -0.102491625 0.10844658 0.027210856 -0.1710708 -0.0022366794 -0.12364668 -0.12036408
-0.00034001694 0.18486446 0.17938393 0.015689302 0.19561686 -0.051703565 -0.051735234 0.1276739
0.039144635 -0.013670827 0.2571346 -0.13499251 0.04475248 0.007814891 -0.12715329 0.03207212
0.0818915 -0.11693369 0.027148578 -0.052017447 0.06986309 -0.029395444 -0.096843496 -0.0088401325
-0.058481187 -0.13044795 0.027580706 0.20224075 0.044908956 0.08688934 0.012467532 0.042131435
-0.06183787 0.15716507 0.049549203 0.036479626 -0.13878018 -0.09309789 -0.13251644 -0.08792594
0.124268666 -0.15657756 0.029336492 -0.016575836 0.018708855 0.02622931 0.034191456 0.004966529
0.09508828 0.0861446 0.052364577 -0.012485972 -0.08355559 -0.15358339 0.1395721 -0.124874555
00000000: ceb2 1bbe 21e7 d1bd 3e19 de3d 4de9 de3c
00000010: 2f2d 2fbe 4195 12bb 783a fdbd 7181 f6bd
00000020: 4d44 b2b9 1c4d 3d3e 6cb0 373e da86 803c
00000030: c94f 483e 1ec7 53bd 53e8 53bd f2bc 023e
00000040: 2056 203d 9bfb 5fbc 25a7 833e 7a3b 0abe
00000050: 604e 373d 070a 003c 7934 02be 0e5e 033d
00000060: bbb6 a73d ee7a efbd b266 de3c 3f10 55bd
00000070: 6114 8f3d b7ce f0bc e255 c6bd 34d6 10bc
00000080: f889 6fbd 2694 05be eff0 e13c 3318 4f3e
00000090: 74f2 373d 0af3 b13d 9f44 4c3c 0392 2c3d
000000a0: b549 7dbd e1ef 203e 1bf4 4a3d a96b 153d
000000b0: 641c 0ebe 1baa bebd 64b2 07be 8412 b4bd
000000c0: 9280 fe3d de55 20be 1553 f03c 0cca 87bc
000000d0: 5043 993c dade d63c 570c 0c3d 44be a23b
000000e0: a5bd c23d 946c b03d 3d7c 563d f691 4cbc
000000f0: 311f abbd f744 1dbe fdeb 0e3e 3bbe ffbd

fc3.weight f4 [32, 64]
-0.09856057 -0.21207775 0.04055771 -0.216723 0.11765309 0.008526756 -0.049650982 0.007968801
-0.0878842 -0.08709553 -0.00011054273 0.13147236 0.23274118 0.41892383 0.25086096 -0.20830595
-0.26737392 -0.08504 0.018942581 0.032198817 -0.08932386 -0.029548898 0.2142985 -0.053608485
0.054719165 0.09314814 0.053571146 0.115954116 -0.059881296 -0.038850967 0.17234203 0.11137198
0.13689497 0.14250727 -0.071434006 0.064445406 0.030884948 0.048282214 0.23901042 0.09428463
-0.040769763 0.2147718 0.077276446 -0.0464368 -0.19802485 0.17894116 -0.03199142 0.055456907
-0.064695135 -0.21449624 -0.009736432 -0.023138264 0.12670924 0.016714793 -0.051791385 -0.044059254
0.16296 0.17576583 0.12640673 0.11275802 -0.06705106 0.031779926 0.17914733 0.022285193
-0.13148338 0.014204015 0.17933495 -0.023370314 0.06769396 -0.050762422 0.09119253 -0.16520226
-0.094390176 0.15183717 0.07305849 -0.007382205 0.07399469 0.08011133 -0.21119119 -0.25355244
0.1042162 -0.03450451 0.103264034 0.10495633 -0.08297885 0.2099419 -0.087519296 0.165111
0.01545124 -0.032596655 -0.075614065 -0.06329006 0.13500524 -0.08117496 -0.028549835 0.15836355
-0.027494725 0.15227407 0.082911395 0.0040274016 0.027257686 -0.020502636 -0.049974818 -0.30109733
0.16796994 0.068046264 -0.034087107 0.2617857 0.008135088 -0.19198114 0.05372954 -0.018189717
0.052164555 -0.007884139 0.01678746 -0.106853805 -0.08251439 0.17256169 -0.06337435 0.016890902
-0.07054243 -0.10163205 0.083684385 -0.21140379 0.20577233 -0.05979347 0.059538472 0.07978988
-0.08005083 0.06345284 0.048635647 -0.16816974 -0.13257486 -0.03554562 -0.0028464857 -0.04934943
-0.012498639 0.0633098 0.11948052 0.12167428 0.13628861 0.1422512 0.12724964 0.19465132
0.098681964 0.052920096 0.030487433 0.1304976 -0.19960925 -0.038319904 -0.11455891 -0.041530073
0.17061746 -0.0064924564 0.048919175 0.061898455 -0.048882622 0.15749756 -0.007300983 0.1164549
-0.06359451 -0.09695136 0.0016809945 0.025635852 -0.01966106 0.030777635 0.1010992 0.048296764
-0.22787954 0.043629464 -0.13917871 -0.023323737 0.022515476 -0.045882333 -0.011586902 0.14878538
-0.023927968 -0.11258804 -0.17036961 0.008006809 -0.10264913 -0.2251469 0.17432244 0.07601124
-0.0063828225 -0.13325882 -0.20480557 0.015362152 -0.18517804 -0.056715008 -0.12617922 -0.21903262
-0.03417089 0.14517957 -0.05540391 -0.10325157 0.0035943124 -0.27215484 0.012151298 -0.023957321
0.21487339 0.08233558 0.07495383 -0.032821365 -0.045567825 0.19867131 0.10914081 0.19884153
0.041417006 0.082112074 0.082510084 0.17166868 -0.07604273 -0.19616477 -0.0878849 -0.04158979
0.10605982 0.14736985 -0.0033655516 0.022762973 0.175968 0.026960768 -0.06515897 0.1585322
-0.20440286 -0.08133084 0.072742045 -0.13855557 0.13970853 0.091362625 -0.15664198 0.11558077
-0.12262857 -0.090694614 -0.18833171 0.19119595 0.19270189 0.20418525 -0.031393327 0.12658814
0.090751186 0.25176638 -0.1191203 0.21357237 0.11900251 -0.08977782 -0.0011726712 0.15919879
-0.24331522 0.13452019 -0.19559048 0.04123498 0.20832227 -0.1428043 -0.14451176 -0.11283442
00000000: 20da c9bd e92a 59be d71f 263d a2ec 5dbe
00000010: 1af4 f03d cfb3 0b3c d45e 4bbd 938f 023c
00000020: a2fc b3bd 245f b2bd 2dd3 e7b8 b1a0 063e
00000030: b453 6e3e 2f7d d63e d970 803e 284e 55be
00000040: 3ce5 88be 7429 aebd 792d 9b3c e8e2 033d
00000050: 6eef b6bd 8810 f2bc 1171 5b3e 9294 5bbd
00000060: 3421 603d 74c4 be3d 6b6d 5b3d 5a79 ed3d
00000070: 1746 75bd 3122 1fbd 6e7a 303e fe16 e43d
00000080: 322e 0c3e 6ded 113e fe4b 92bd f4fb 833d
00000090: 6e02 fd3c 92c3 453d 26bf 743e 4d18 c13d
000000a0: 32fe 26bd 24ed 5b3e 1d43 9e3d 8434 3ebd
000000b0: 07c7 4abe 5a3c 373e 6f09 03bd c826 633d
000000c0: e27e 84bd e7a4 5bbe 8e85 1fbc 758c bdbc
000000d0: 11c0 013e 76ed 883c 3423 54bd 7a77 34bd
000000e0: fcde 263e f5fb 333e c470 013e aded e63d
000000f0: 1152 89bd ab2b 023d 6672 373e 708f b63c
00000100: 94a3 06be f5b7 683c 95a3 373e 1a73 bfbc
00000110: 22a3 8a3d 42ec 4fbd 26c3 ba3d c82a 29be
00000120: a34f c1bd 347b 1b3e b19f 953d 6de6 f1bb
00000130: 878a 973d 6911 a43d 8142 58be a0d1 81be
00000140: 4e6f d53d 9a54 0dbd 187c d33d 58f3 d63d
00000150: d1f0 a9bd 02fb 563e 513d b3bd dc12 293e
00000160: 3327 7d3c 1284 05bd 8cdb 9abd 389e 81bd
00000170: d03e 0a3e 0f3f a6bd 58e1 e9bc 0e2a 223e
00000180: 9e3c e1bc bced 1b3e 73cd a93d 4bf8 833b
00000190: 834b df3c 25f5 a7bc 65b2 4cbd 6e29 9abe
000001a0: 5000 2c3e d75b 8b3d ec9e 0bbd c608 863e
000001b0: 0849 053c b496 44be 8213 5c3d 9a02 95bc
000001c0: 80aa 553d 7a2c 01bc db85 893c 2bd6 dabd
000001d0: 4efd a8bd 03b4 303e 69ca 81bd ca5e 8a3c
000001e0: 8d78 90bd 7724 d0bd b862 ab3d 3c7a 58be
000001f0: fbb5 523e ffe9 74bd 9dde 733d e068 a33d
00000200: b1f1 a3bd 90f3 813d 2c36 473d b034 2cbe
00000210: b4c1 07be 4998 11bd 1b8c 3abb a122 4abd
00000220: 17c7 4cbc 92a8 813d 34b2 f43d 5d30 f93d
00000230: 3e8f 0b3e 4caa 113e bb4d 023e ad52 473e
00000240: c519 ca3d bec2 583d c8c0 f93c 2aa1 053e
00000250: 5e66 4cbe 55f5 1cbd dd9d eabd 701b 2abd
00000260: 58b6 2e3e acbe d4bb 795f 483d 3c89 7d3d
00000270: 2539 48bd 0a47 213e 163d efbb e87f ee3d
00000280: d73d 82bd 6f8e c6bd d154 dc3a 4702 d23c
00000290: 3b10 a1bc 6121 fc3c 190d cf3d d4d2 453d
000002a0: 4159 69be cfb4 323d dd84 0ebe 6c11 bfbc
000002b0: 6072 b83c 1def 3bbd fdd6 3dbc 325b 183e
000002c0: 9604 c4bc 8f94 e6bd 5f75 2ebe fe2e 033c
000002d0: b539 d2bd e98c 66be 9581 323e c8ab 9b3d
000002e0: ff26 d1bb 0075 08be 8db8 51be 89b1 7b3c
000002f0: 509f 3dbe ff4d 68bd 2035 01be 164a 60be
00000300: c6f6 0bbd f4a9 143e 36ef 62bd 8f75 d3bd
00000310: 8e8e 6b3b e157 8bbe 3d16 473c 2542 c4bc
00000320: c507 5c3e 8e9f a83d 6581 993d b26f 06bd
00000330: 54a5 3abd 7e70 4b3e 3885 df3d 1d9d 4b3e
00000340: e1a4 293d 602a a83d 0cfb a83d eac9 2f3e
00000350: 4abc 9bbd 6bdf 48be 00fd b3bd 0e5a 2abd
00000360: e435 d93d 1fe8 163e 9690 5cbb 6a79 ba3c
00000370: f530 343e d4dc dc3c 1172 85bd 4456 223e
00000380: fc4e 51be c990 a6bd c8f9 943d 83e1 0dbe
00000390: c10f 0f3e 541c bb3d c166 20be 9cb5 ec3d
000003a0: b024 fbbd 19be b9bd 07da 40be dfc8 433e
000003b0: a553 453e f015 513e 4a96 00bd 52a0 013e
000003c0: c2db b93d 86e7 803e 58f5 f3bd b7b2 5a3e
000003d0: 97b7 f33d 6fdd b7bd 51b4 99ba 0205 233e
000003e0: a027 79be a9bf 093e df48 48be 03e6 283d
000003f0: 6f52 553e 4a3b 12be e4fa 13be bb15 e7bd

fc3.bias f4 [32]
0.11368081 0.0759491 0.23410535 0.055001326 -0.02934736 0.069544785 0.14340074 0.0018216032
0.045479428 -0.065279506 -0.19078822 0.09727773 0.024401197 0.25097856 -0.12623298 -0.089263216
0.052241337 -0.014770479 0.065349594 0.01289127 -0.18723077 -0.1195085 -0.094046876 -0.062141776
0.09123228 0.18186657 0.10629209 0.21801926 -0.084187455 0.031168086 0.09519508 -0.23184754
00000000: 7cd1 e83d 348b 9b3d 50b9 6f3e 1249 613d
00000010: e069 f0bc 7f6d 8e3d a5d7 123e dcc2 ee3a
00000020: a348 3a3d 43b1 85bd fd5d 43be 8c39 c73d
00000030: 05e5 c73c 4380 803e 3843 01be a2cf b6bd
00000040: 03fb 553d e1ff 71bc 02d6 853d e835 533c
00000050: 6cb9 3fbe dfc0 f4bd a69b c0bd 6088 7ebd
00000060: fdd7 ba3d 3b3b 3a3e abaf d93d 7140 5f3e
00000070: 796a acbd 3754 ff3c a3f5 c23d 7169 6dbe

fc4.weight f4 [10, 32]
0.21762106 -0.2911306 0.13145645 -0.15274064 -0.2487897 -0.069406234 0.1953988 0.09167246
-0.17713127 0.17382346 0.010501478 -0.35267282 -0.04249033 -0.013231606 -0.124054514 0.22989435
0.086588964 0.0877714 -0.054423396 -0.3465451 -0.23340338 -0.14629754 0.20290555 -0.15966316
0.03446975 -0.09892302 0.13550955 0.16539767 -0.059843685 -0.024185425 0.03982807 -0.41221046
-0.089791894 -0.039082304 -0.16416463 0.13495927 -0.03219242 0.052067295 0.026191017 -0.3273568
-0.33223742 0.13013111 0.24630323 0.1939293 0.04947265 -0.25031507 0.09607325 0.12799235
0.14632621 0.10271225 -0.32360294 0.07018692 0.102965966 0.004858637 -0.019082557 -0.25922012
-0.34699225 0.1287644 -0.34138322 -0.24472429 0.08855141 -0.07375358 0.3400835 0.046781424
0.17772609 0.2003744 -0.21117868 -0.15098062 -0.048660886 -0.172509 -0.003959501 -0.19341953
-0.030730212 -0.003181358 0.06524076 0.12603614 -0.1635781 0.00920958 0.07972261 0.22479148
-0.26542005 -0.34581488 -0.12292375 0.121694356 0.15981677 0.06917128 0.1986804 0.0986282
-0.0025553538 -0.2724131 0.17646374 -0.061236612 -0.048141666 0.021447042 -0.15016048 0.19307312
0.044440117 -0.050306503 0.20289065 0.25264728 -0.047743827 -0.08105702 -0.30791828 -0.13026296
0.117437996 -0.12327233 -0.25453076 0.10445122 -0.0041273977 -0.09510072 -0.020285325 -0.041981302
-0.20678794 0.20978084 -0.2652384 0.19893038 -0.010527939 -0.2245748 0.06278828 -0.057008702
0.111178674 -0.21700811 0.103839576 0.12206316 -0.25926864 -0.14281379 -0.34788695 -0.08340493
-0.1870156 0.12798281 -0.17299594 0.09346264 0.14435484 -0.057085965 -0.18008713 -0.31104416
-0.123998255 -0.026660243 0.027708542 -0.16584383 0.10440059 0.24248093 0.051136963 0.06684329
0.0017152107 -0.012725187 0.12644188 -0.35753882 -0.1969851 0.2198297 -0.08603684 0.11293796
0.13214287 -0.104959846 -0.34747094 0.1842274 0.078769244 -0.072991185 0.26856193 -0.113830715
0.14521863 0.040451422 0.01798569 0.16442513 0.18158422 0.016944489 -0.124173015 0.2385074
0.12215897 -0.01287777 0.10211499 0.19544451 0.13236645 -0.24196607 -0.020666692 -0.29439503
0.029968362 -0.17548837 0.043120455 -0.076658875 0.04623803 -0.26600626 -0.07222337 0.16516188
0.15433443 -0.26993173 -0.19317485 -0.17293684 -0.23533297 0.12614258 -0.20843185 -0.057945456
0.2222173 -0.38896793 -0.17896342 -0.34966084 0.2773675 -0.045085475 -0.26968375 0.013610888
-0.3412479 0.1034679 0.14157689 -0.32691568 -0.081133105 -0.23756373 0.046227876 0.13798897
0.210135 -0.078382984 0.11634749 -0.1655275 0.09752783 -0.074830465 -0.18073492 -0.16382556
0.025058031 0.16360989 -0.05516587 -0.04898548 -0.28249368 0.034421165 -0.2950035 -0.13202623
-0.18229719 0.13953067 -0.0011399155 0.13369878 0.005865873 -0.01592543 0.17487015 0.08981755
0.2419869 -0.37667802 0.0010385829 0.0046913964 -0.063244365 0.027838573 0.15644719 0.19400875
0.0038500798 0.021080947 -0.27016297 -0.08356042 -0.068702415 0.096113645 0.19418028 -0.105027534
-0.19236168 0.11144666 -0.23367317 -0.24337246 0.051677737 0.036175083 -0.18696274 0.18884157
00000000: 0ed8 5e3e 120f 95be 859c 063e 0b68 1cbe
00000010: bac2 7ebe db24 8ebd 9f16 483e c5be bb3d
00000020: e661 35be c7fe 313e 640e 2c3c 8891 b4be
00000030: 570a 2ebd 61c9 58bc 4b10 febd 6d69 6b3e
00000040: 8e55 b13d 7ec1 b33d 11eb 5ebd 5c6e b1be
00000050: 4c01 6fbe 06cf 15be 79c6 4f3e bd7e 23be
00000060: 2730 0d3d 2798 cabd 04c3 0a3e 025e 293e
00000070: a71e 75bd 8320 c6bc c222 233d 400d d3be
00000080: d0e4 b7bd c414 20bd c61a 28be c332 0a3e
00000090: 33dc 03bd 8444 553d 8b8e d63c 4f9b a7be
000000a0: 061b aabe 1741 053e ea36 7c3e 6795 463e
000000b0: d5a3 4a3d 4c29 80be 0dc2 c43d 6d10 033e
000000c0: 8ad6 153e cd5a d23d 49af a5be 29be 8f3d
000000d0: d2df d23d 3435 9f3b 0653 9cbc 80b8 84be
000000e0: f8a8 b1be d1da 033e c8c9 aebe 0199 7abe
000000f0: 715a b53d 1e0c 97bd 6d1f ae3e e19d 3f3d
00000100: d4fd 353e f22e 4d3e 393f 58be aa9a 1abe
00000110: a350 47bd 33a6 30be b4be 81bb c50f 46be
00000120: edbd fbbc 557e 50bb f39c 853d 9e0f 013e
00000130: 0481 27be c7e3 163c 9c45 a33d bd2f 663e
00000140: 23e5 87be a60e b1be 72bf fbbd e43a f93d
00000150: 02a7 233e aca9 8d3d e072 4b3e 95fd c93d
00000160: b977 27bb bb79 8bbe e9b2 343e 3ed3 7abd
00000170: 3230 45bd b5b1 af3c abc3 19be f6b4 453e
00000180: d706 363d 310e 4ebd 91c2 4f3e fc5a 813e
00000190: 088f 43bd 3901 a6bd 77a7 9dbe a763 05be
000001a0: 5583 f03d 3476 fcbd db51 82be 85ea d53d
000001b0: 1f3f 87bb 2bc4 c2bd 692d a6bc 96f4 2bbd
000001c0: 38c0 53be cad0 563e 54cd 87be 68b4 4b3e
000001d0: 607d 2cbc f0f6 65be 2497 803d f581 69bd
000001e0: a5b1 e33d 6037 5ebe d8a9 d43d 40fc f93d
000001f0: dcbe 84be c73d 12be 3d1e b2be 34d0 aabd
00000200: 0481 3fbe ed0d 033e d925 31be 5769 bf3d
00000210: c1d1 133e f9d2 69bd c368 38be 2e41 9fbe
00000220: ccf2 fdbd 9566 dabc 06fd e23c f7d2 29be
00000230: facf d53d ec4c 783e fe74 513d 23e5 883d
00000240: ecd0 e03a 4e7d 50bc fb79 013e 540f b7be
00000250: 76b6 49be 091b 613e 1534 b0bd 044c e73d
00000260: 7650 073e 30f5 d6bd b6e7 b1be 1ca6 3c3e
00000270: c551 a13d 677c 95bd f380 893e 1420 e9bd
00000280: 31b4 143e 64b0 253d ba56 933c 105f 283e
00000290: 37f1 393e 2bcf 8a3c 6c4e febd 493b 743e
000002a0: 7b2e fa3d 48fd 52bc aa21 d13d 9b22 483e
000002b0: 128b 073e f4c5 77be 324d a9bc f2ba 96be
000002c0: 3680 f53c 39b3 33be 139f 303d 54ff 9cbd
000002d0: 1764 3d3d f931 88be d9e9 93bd 3220 293e
000002e0: d809 1e3e 7e34 8abe a1cf 45be 5b16 31be
000002f0: 20fb 70be 852b 013e 296f 55be 3758 6dbd
00000300: ef8c 633e ce26 c7be 3042 37be bf06 b3be
00000310: 1d03 8e3e 8cab 38bd fd13 8abe 3400 5f3c
00000320: 0bb8 aebe fae6 d33d 88f9 103e 7e61 a7be
00000330: 1d29 a6bd e843 73be 7159 3d3d fb4c 0d3e
00000340: a12d 573e 4287 a0bd 9847 ee3d 0a80 29be
00000350: acbc c73d b740 99bd 9312 39be e3c1 27be
00000360: 8046 cd3c 5a89 273e 9bf5 61bd 00a5 48bd
00000370: 03a3 90be 35fd 0c3d b30a 97be e231 07be
00000380: 1dac 3abe 21e1 0e3e 3869 95ba 55e8 083e
00000390: 8236 c03b 0c76 82bc 2911 333e 43f2 b73d
000003a0: 6acb 773e f1db c0be 0f21 883a 49ba 993b
000003b0: 4386 81bd b80d e43c b133 203e 3baa 463e
000003c0: 9f51 7c3b f3b1 ac3c cd52 8abe ba21 abbd
000003d0: dab3 8cbd 3bd7 c43d 32d7 463e ad18 d7bd
000003e0: 76fa 44be 253e e43d 0548 6fbe a136 79be
000003f0: 09ac 533d 532c 143d 2973 3fbe af5f 413e

fc4.bias f4 [10]
-0.0053492417 -0.04825406 -0.0014911215 0.038514644 -0.0713767 -0.15835269 -0.19018732 -0.01134008
0.2868335 0.17152494
00000000: b148 afbb 0da6 45bd bc71 c3ba 88c1 1d3d
00000010: f32d 92bd 3527 22be 77c0 42be becb 39bc
00000020: d7db 923e 3ca4 2f3e
